running on cuda:0
AdvancedHetDDI(
  (kg): HGNN(
    (dropout): Dropout(p=0.2, inplace=False)
    (node_embedding): Embedding(97244, 300)
    (gat_layers): ModuleList(
      (0-2): 3 x HetConv(
        (edge_embedding): Embedding(108, 300)
        (bn): Sequential(
          (0): Linear(in_features=300, out_features=300, bias=True)
          (1): BatchNorm1d(300, eps=1e-05, momentum=0.1, affine=True, track_running_stats=True)
        )
        (leaky_relu): LeakyReLU(negative_slope=0.02)
      )
    )
  )
  (kg_fc): Sequential(
    (0): Linear(in_features=300, out_features=300, bias=True)
    (1): BatchNorm1d(300, eps=1e-05, momentum=0.1, affine=True, track_running_stats=True)
    (2): Dropout(p=0.1, inplace=False)
    (3): ReLU()
    (4): Linear(in_features=300, out_features=300, bias=True)
    (5): BatchNorm1d(300, eps=1e-05, momentum=0.1, affine=True, track_running_stats=True)
    (6): Dropout(p=0.1, inplace=False)
    (7): ReLU()
    (8): Linear(in_features=300, out_features=300, bias=True)
    (9): BatchNorm1d(300, eps=1e-05, momentum=0.1, affine=True, track_running_stats=True)
    (10): Dropout(p=0.1, inplace=False)
    (11): ReLU()
  )
  (mol): Mol(
    (readout): AvgPooling()
    (gnn): HGNN(
      (dropout): Dropout(p=0.2, inplace=False)
      (node_embedding): Embedding(89, 300)
      (gat_layers): ModuleList(
        (0-2): 3 x HetConv(
          (edge_embedding): Embedding(5, 300)
          (bn): Sequential(
            (0): Linear(in_features=300, out_features=300, bias=True)
            (1): BatchNorm1d(300, eps=1e-05, momentum=0.1, affine=True, track_running_stats=True)
          )
          (leaky_relu): LeakyReLU(negative_slope=0.02)
        )
      )
    )
  )
  (mol_fc): Sequential(
    (0): Linear(in_features=300, out_features=300, bias=True)
    (1): BatchNorm1d(300, eps=1e-05, momentum=0.1, affine=True, track_running_stats=True)
    (2): Dropout(p=0.1, inplace=False)
    (3): ReLU()
    (4): Linear(in_features=300, out_features=300, bias=True)
    (5): BatchNorm1d(300, eps=1e-05, momentum=0.1, affine=True, track_running_stats=True)
    (6): Dropout(p=0.1, inplace=False)
    (7): ReLU()
    (8): Linear(in_features=300, out_features=300, bias=True)
    (9): BatchNorm1d(300, eps=1e-05, momentum=0.1, affine=True, track_running_stats=True)
    (10): Dropout(p=0.1, inplace=False)
    (11): ReLU()
  )
  (mol_proj): Sequential(
    (0): Linear(in_features=300, out_features=300, bias=True)
    (1): LayerNorm((300,), eps=1e-05, elementwise_affine=True)
    (2): ReLU()
    (3): Linear(in_features=300, out_features=300, bias=True)
  )
  (co_attn): CoAttention(
    (attn_a2b): MultiheadAttention(
      (out_proj): NonDynamicallyQuantizableLinear(in_features=600, out_features=600, bias=True)
    )
    (attn_b2a): MultiheadAttention(
      (out_proj): NonDynamicallyQuantizableLinear(in_features=600, out_features=600, bias=True)
    )
    (norm_a): LayerNorm((600,), eps=1e-05, elementwise_affine=True)
    (norm_b): LayerNorm((600,), eps=1e-05, elementwise_affine=True)
    (gate_a): Sequential(
      (0): Linear(in_features=1200, out_features=600, bias=True)
      (1): Sigmoid()
    )
    (gate_b): Sequential(
      (0): Linear(in_features=1200, out_features=600, bias=True)
      (1): Sigmoid()
    )
    (dropout): Dropout(p=0.1, inplace=False)
  )
  (proto_mem): PrototypeMemory()
  (decoder): Sequential(
    (0): Linear(in_features=2400, out_features=2400, bias=True)
    (1): BatchNorm1d(2400, eps=1e-05, momentum=0.1, affine=True, track_running_stats=True)
    (2): ReLU()
    (3): Dropout(p=0.1, inplace=False)
    (4): Linear(in_features=2400, out_features=1200, bias=True)
    (5): BatchNorm1d(1200, eps=1e-05, momentum=0.1, affine=True, track_running_stats=True)
    (6): ReLU()
    (7): Dropout(p=0.1, inplace=False)
    (8): Linear(in_features=1200, out_features=86, bias=False)
  )
  (contrastive_loss_fn): InfoNCELoss()
)
[Fold 0][Epoch 0] train loss: 5.1916
[Fold 0][Epoch 0] acc:0.030 f1:0.002 precision:0.014 recall:0.017 kappa:0.000
None
====================================================================================================
[Fold 0][Epoch 1] train loss: 3.3596
[Fold 0][Epoch 1] acc:0.136 f1:0.012 precision:0.016 recall:0.030 kappa:0.034
…
