Computing pharmacophore global features...
PharmaEnhancedHetDDI(
  (kg): HGNN(
    (dropout): Dropout(p=0.2, inplace=False)
    (node_embedding): Embedding(97244, 300)
    (gat_layers): ModuleList(
      (0-2): 3 x HetConv(
        (edge_embedding): Embedding(108, 300)
        (bn): Sequential(
          (0): Linear(in_features=300, out_features=300, bias=True)
          (1): BatchNorm1d(300, eps=1e-05, momentum=0.1, affine=True, track_running_stats=True)
        )
        (leaky_relu): LeakyReLU(negative_slope=0.02)
      )
    )
  )
  (kg_fc): Sequential(
    (0): Linear(in_features=300, out_features=300, bias=True)
    (1): BatchNorm1d(300, eps=1e-05, momentum=0.1, affine=True, track_running_stats=True)
    (2): Dropout(p=0.1, inplace=False)
    (3): ReLU()
    (4): Linear(in_features=300, out_features=300, bias=True)
    (5): BatchNorm1d(300, eps=1e-05, momentum=0.1, affine=True, track_running_stats=True)
    (6): Dropout(p=0.1, inplace=False)
    (7): ReLU()
    (8): Linear(in_features=300, out_features=300, bias=True)
    (9): BatchNorm1d(300, eps=1e-05, momentum=0.1, affine=True, track_running_stats=True)
    (10): Dropout(p=0.1, inplace=False)
    (11): ReLU()
  )
  (mol): Mol(
    (readout): AvgPooling()
    (gnn): HGNN(
      (dropout): Dropout(p=0.2, inplace=False)
      (node_embedding): Embedding(89, 300)
      (gat_layers): ModuleList(
        (0-2): 3 x HetConv(
          (edge_embedding): Embedding(5, 300)
          (bn): Sequential(
            (0): Linear(in_features=300, out_features=300, bias=True)
            (1): BatchNorm1d(300, eps=1e-05, momentum=0.1, affine=True, track_running_stats=True)
          )
          (leaky_relu): LeakyReLU(negative_slope=0.02)
        )
      )
    )
  )
  (mol_fc): Sequential(
    (0): Linear(in_features=300, out_features=300, bias=True)
    (1): BatchNorm1d(300, eps=1e-05, momentum=0.1, affine=True, track_running_stats=True)
    (2): Dropout(p=0.1, inplace=False)
    (3): ReLU()
    (4): Linear(in_features=300, out_features=300, bias=True)
    (5): BatchNorm1d(300, eps=1e-05, momentum=0.1, affine=True, track_running_stats=True)
    (6): Dropout(p=0.1, inplace=False)
    (7): ReLU()
    (8): Linear(in_features=300, out_features=300, bias=True)
    (9): BatchNorm1d(300, eps=1e-05, momentum=0.1, affine=True, track_running_stats=True)
    (10): Dropout(p=0.1, inplace=False)
    (11): ReLU()
  )
  (mol_proj): Sequential(
    (0): Linear(in_features=300, out_features=300, bias=True)
    (1): LayerNorm((300,), eps=1e-05, elementwise_affine=True)
    (2): ReLU()
    (3): Linear(in_features=300, out_features=300, bias=True)
  )
  (pharma_enc): Sequential(
    (0): Linear(in_features=19, out_features=150, bias=True)
    (1): LayerNorm((150,), eps=1e-05, elementwise_affine=True)
    (2): GELU(approximate='none')
    (3): Dropout(p=0.1, inplace=False)
    (4): Linear(in_features=150, out_features=300, bias=True)
    (5): LayerNorm((300,), eps=1e-05, elementwise_affine=True)
    (6): GELU(approximate='none')
  )
  (pharma_gate): Sequential(
    (0): Linear(in_features=600, out_features=300, bias=True)
    (1): Sigmoid()
  )
  (co_attn): CoAttention(
    (attn_a2b): MultiheadAttention(
      (out_proj): NonDynamicallyQuantizableLinear(in_features=600, out_features=600, bias=True)
    )
    (attn_b2a): MultiheadAttention(
      (out_proj): NonDynamicallyQuantizableLinear(in_features=600, out_features=600, bias=True)
    )
    (norm_a1): LayerNorm((600,), eps=1e-05, elementwise_affine=True)
    (norm_b1): LayerNorm((600,), eps=1e-05, elementwise_affine=True)
    (norm_a2): LayerNorm((600,), eps=1e-05, elementwise_affine=True)
    (norm_b2): LayerNorm((600,), eps=1e-05, elementwise_affine=True)
    (ffn_a): Sequential(
      (0): Linear(in_features=600, out_features=1200, bias=True)
      (1): GELU(approximate='none')
      (2): Dropout(p=0.1, inplace=False)
      (3): Linear(in_features=1200, out_features=600, bias=True)
      (4): Dropout(p=0.1, inplace=False)
    )
    (ffn_b): Sequential(
      (0): Linear(in_features=600, out_features=1200, bias=True)
      (1): GELU(approximate='none')
      (2): Dropout(p=0.1, inplace=False)
      (3): Linear(in_features=1200, out_features=600, bias=True)
      (4): Dropout(p=0.1, inplace=False)
    )
  )
  (pair_fuse): Sequential(
    (0): Linear(in_features=2400, out_features=1200, bias=True)
    (1): LayerNorm((1200,), eps=1e-05, elementwise_affine=True)
    (2): GELU(approximate='none')
    (3): Dropout(p=0.1, inplace=False)
  )
  (proto_mem): PrototypeMemory()
  (dec_proj): Linear(in_features=2400, out_features=1200, bias=True)
  (dec_layers): ModuleList(
    (0-2): 3 x Sequential(
      (0): Linear(in_features=1200, out_features=1200, bias=True)
      (1): BatchNorm1d(1200, eps=1e-05, momentum=0.1, affine=True, track_running_stats=True)
      (2): ReLU()
      (3): Dropout(p=0.1, inplace=False)
    )
  )
  (dec_head): Linear(in_features=1200, out_features=86, bias=False)
  (contrastive_loss_fn): InfoNCELoss()
)
[Fold 0][Epoch 0] train loss: 2.6640
[Fold 0][Epoch 0] acc:0.001 f1:0.000 precision:0.000 recall:0.017 kappa:0.000
None
====================================================================================================
[Fold 0][Epoch 1] train loss: 1.1734
[Fold 0][Epoch 1] acc:0.001 f1:0.000 precision:0.000 recall:0.017 kappa:0.000
…
