Building pharmacophore molecular graphs...
PharmacoDDI(
  (mol_encoder): MultiScaleMolEncoder(
    (atom_enc): AtomEncoder(
      (atom_proj): Linear(in_features=26, out_features=300, bias=True)
      (bond_proj): Linear(in_features=12, out_features=300, bias=True)
      (convs): ModuleList(
        (0-2): 3 x Linear(in_features=600, out_features=300, bias=True)
      )
      (norms): ModuleList(
        (0-2): 3 x LayerNorm((300,), eps=1e-05, elementwise_affine=True)
      )
      (dropout): Dropout(p=0.1, inplace=False)
      (act): GELU(approximate='none')
    )
    (atom_readout): AvgPooling()
    (frag_enc): FragmentEncoder(
      (pool): SumPooling()
      (hbd_proj): Sequential(
        (0): Linear(in_features=300, out_features=300, bias=True)
        (1): LayerNorm((300,), eps=1e-05, elementwise_affine=True)
        (2): GELU(approximate='none')
      )
      (hba_proj): Sequential(
        (0): Linear(in_features=300, out_features=300, bias=True)
        (1): LayerNorm((300,), eps=1e-05, elementwise_affine=True)
        (2): GELU(approximate='none')
      )
      (arom_proj): Sequential(
        (0): Linear(in_features=300, out_features=300, bias=True)
        (1): LayerNorm((300,), eps=1e-05, elementwise_affine=True)
        (2): GELU(approximate='none')
      )
      (hydro_proj): Sequential(
        (0): Linear(in_features=300, out_features=300, bias=True)
        (1): LayerNorm((300,), eps=1e-05, elementwise_affine=True)
        (2): GELU(approximate='none')
      )
      (fuse): Sequential(
        (0): Linear(in_features=1200, out_features=600, bias=True)
        (1): LayerNorm((600,), eps=1e-05, elementwise_affine=True)
        (2): GELU(approximate='none')
        (3): Dropout(p=0.1, inplace=False)
        (4): Linear(in_features=600, out_features=300, bias=True)
      )
    )
    (global_enc): Sequential(
      (0): Linear(in_features=19, out_features=150, bias=True)
      (1): LayerNorm((150,), eps=1e-05, elementwise_affine=True)
      (2): GELU(approximate='none')
      (3): Dropout(p=0.1, inplace=False)
      (4): Linear(in_features=150, out_features=300, bias=True)
      (5): LayerNorm((300,), eps=1e-05, elementwise_affine=True)
      (6): GELU(approximate='none')
    )
    (scale_fusion): Sequential(
      (0): Linear(in_features=900, out_features=600, bias=True)
      (1): LayerNorm((600,), eps=1e-05, elementwise_affine=True)
      (2): GELU(approximate='none')
      (3): Dropout(p=0.1, inplace=False)
      (4): Linear(in_features=600, out_features=300, bias=True)
      (5): LayerNorm((300,), eps=1e-05, elementwise_affine=True)
    )
    (scale_gate): Sequential(
      (0): Linear(in_features=900, out_features=3, bias=True)
      (1): Softmax(dim=-1)
    )
  )
  (chem_attn): ChemicalInteractionAttn(
    (hbd_hba_attn): MultiheadAttention(
      (out_proj): NonDynamicallyQuantizableLinear(in_features=75, out_features=75, bias=True)
    )
    (hydro_attn): MultiheadAttention(
      (out_proj): NonDynamicallyQuantizableLinear(in_features=75, out_features=75, bias=True)
    )
    (arom_attn): MultiheadAttention(
      (out_proj): NonDynamicallyQuantizableLinear(in_features=75, out_features=75, bias=True)
    )
    (general_attn): MultiheadAttention(
      (out_proj): NonDynamicallyQuantizableLinear(in_features=75, out_features=75, bias=True)
    )
    (proj_a): Linear(in_features=300, out_features=300, bias=True)
    (proj_b): Linear(in_features=300, out_features=300, bias=True)
    (norm_a): LayerNorm((300,), eps=1e-05, elementwise_affine=True)
    (norm_b): LayerNorm((300,), eps=1e-05, elementwise_affine=True)
    (ffn_a): Sequential(
      (0): Linear(in_features=300, out_features=600, bias=True)
      (1): GELU(approximate='none')
      (2): Dropout(p=0.1, inplace=False)
      (3): Linear(in_features=600, out_features=300, bias=True)
      (4): Dropout(p=0.1, inplace=False)
    )
    (ffn_b): Sequential(
      (0): Linear(in_features=300, out_features=600, bias=True)
      (1): GELU(approximate='none')
      (2): Dropout(p=0.1, inplace=False)
      (3): Linear(in_features=600, out_features=300, bias=True)
      (4): Dropout(p=0.1, inplace=False)
    )
    (norm_a2): LayerNorm((300,), eps=1e-05, elementwise_affine=True)
    (norm_b2): LayerNorm((300,), eps=1e-05, elementwise_affine=True)
  )
  (dec_proj): Linear(in_features=1200, out_features=600, bias=True)
  (dec_layers): ModuleList(
    (0-2): 3 x Sequential(
      (0): Linear(in_features=600, out_features=600, bias=True)
      (1): BatchNorm1d(600, eps=1e-05, momentum=0.1, affine=True, track_running_stats=True)
      (2): GELU(approximate='none')
      (3): Dropout(p=0.1, inplace=False)
    )
  )
  (dec_head): Linear(in_features=600, out_features=86, bias=False)
)
[Fold 0][Epoch 0] train loss: 4.5380
[Fold 0][Epoch 0] acc:0.284 f1:0.009 precision:0.007 recall:0.017 kappa:0.000
None
====================================================================================================
[Fold 0][Epoch 1] train loss: 3.4888
[Fold 0][Epoch 1] acc:0.293 f1:0.008 precision:0.005 recall:0.017 kappa:0.000
None
====================================================================================================
…
